best_model.pth (torch, 14566 bytes, 5 tensors)

network.0.weight f4 [64, 12]
0	0x3de37d9a	0.11107941
1	0xbe1bfb0b	-0.15232484
2	0x3e4cb7f7	0.19992052
3	0x3ea964b6	0.3308465
4	0xbe59509d	-0.21222158
5	0x3ecba3f4	0.39773524
6	0xbd3a1687	-0.04543164
7	0xbd40a654	-0.047033623
8	0xbd94ac66	-0.07259445
9	0xbdf0df51	-0.11761344
10	0x3e20da64	0.1570831
11	0xbc9f3617	-0.019434972
12	0xbeb15997	-0.34638664
13	0xbe635b55	-0.22202809
14	0xbe38a28e	-0.1803076
15	0xbd94d8e8	-0.07267934
16	0x3dff974a	0.12480028
17	0xbe95772d	-0.29192486
18	0xbe92fcd0	-0.28708506
19	0xbde5744e	-0.11203824
20	0xbb3a7e1f	-0.0028456522
21	0xbe63792d	-0.22214194
22	0x3d8f5625	0.06998853
23	0xbd3446b1	-0.04401273
24	0xbe95a9cb	-0.29231104
25	0x3e5b7588	0.21431553
26	0xbec3b848	-0.38226533
27	0xbe9df8d8	-0.30853915
28	0xbd6e5e8c	-0.058195636
29	0x3d43c3d1	0.047794167
30	0xbe78eb00	-0.24308395
31	0x3e0645ce	0.13112566
32	0xbd9e22bf	-0.07721471
33	0x3e439efe	0.1910362
34	0xbe6bdb4f	-0.23032878
35	0x3e6b340f	0.22969078
36	0xbe1f5c1c	-0.1556248
37	0xbdb5c064	-0.08874586
38	0xbea95514	-0.33072722
39	0xbe1aa9ab	-0.15103786
40	0x3e3ee587	0.18642245
41	0xbe9f825c	-0.31154144
42	0xbe90328e	-0.2816357
43	0xbe367057	-0.17816292
44	0xbe389468	-0.18025362
45	0xbdf8ac75	-0.121422686
46	0xbe81dad7	-0.25362274
47	0xbcd701a6	-0.026245903
48	0x3dd3d518	0.10343379
49	0xbeb5e3f2	-0.3552547
50	0xbbb7463b	-0.005593089
51	0x3e4ff122	0.20306829
52	0x3e0b0961	0.13577797
53	0x3e988f85	0.29796997
54	0x3baab255	0.005209247
55	0xbe33e6d1	-0.17568518
56	0x3d96fbba	0.07372232
57	0x3e65fb3c	0.2245912
58	0x3e2f5e6c	0.17125863
59	0x3d9415b4	0.07230702
60	0x3e783d3c	0.24242109
61	0x3e1419d0	0.14462972
62	0x3e4e0c75	0.2012194
63	0x3e911aee	0.28340858
64	0x3dce0d28	0.10061103
65	0xbcf14461	-0.02945155
66	0xbe027d9f	-0.12743233
67	0x3e15f9dd	0.14646097
68	0xbe507d47	-0.2036029
69	0xbeacbb67	-0.33736727
70	0x3ea180f5	0.315437
71	0xbe8fe481	-0.28104022
72	0x3e4b73eb	0.19868438
73	0x3d45f46e	0.04832881
74	0x3e9e2ede	0.30895132
75	0xbd8a65b2	-0.06757678
76	0x3e59f35d	0.21284242
77	0x3e197cad	0.14988966
78	0xbebe4be1	-0.37167266
79	0x3d0efe18	0.03491029
80	0xbe6656f7	-0.22494112
81	0xbbfc5eb0	-0.0077017173
82	0xbb82ac1d	-0.0039878027
83	0xbdf4b3a1	-0.11948324
84	0xbe2d2142	-0.16907218
85	0x3ea74edd	0.32677355
86	0x3e0d32ed	0.13788958
87	0x3dd9d143	0.10635617
88	0xbe68320f	-0.22675346
89	0x3dc74ab3	0.097310446
90	0xbe86b6b1	-0.26311257
91	0x3e2bda02	0.16782382
92	0x3df9bfc6	0.12194781
93	0xbe18e962	-0.14932778
94	0xbe8cadce	-0.27476352
95	0xbdfa7257	-0.1222884
96	0xbd7eb636	-0.06218549
97	0xbe91b5ba	-0.2845896
98	0x3cd44a35	0.02591429
99	0xbe36a0a0	-0.17834711
100	0x3da6170d	0.08109865
101	0xbe1f1dc8	-0.15538704
102	0xbe4a294a	-0.19742313
103	0x3e67f8d3	0.22653513
104	0xbdc65cf3	-0.096856974
105	0xbdff6bc1	-0.12471724
106	0xbe37c1fe	-0.17945096
107	0x3d42f82f	0.047599968
108	0x3c40ce41	0.011767925
109	0x3e811e5e	0.2521848
110	0xbd51da4c	-0.051233575
111	0xbd8e39c6	-0.06944613
112	0xbe6dd23e	-0.23224732
113	0xbe2bd440	-0.16780186
114	0xbcd78770	-0.026309699
115	0x3e04151a	0.12898675
116	0xbe98231b	-0.29714283
117	0xbe432e5f	-0.19060658
118	0xbe519671	-0.20467545
119	0xbe363deb	-0.17797057
120	0xbe5f6563	-0.2181602
121	0x3e4869d8	0.19571626
122	0xbdb87ed5	-0.09008566
123	0x3da13be1	0.07872749
124	0xbe472fc0	-0.19451809
125	0xbe9855e5	-0.29753032
126	0x3cb6f394	0.022332944
127	0xbd8f6a2b	-0.07002672
128	0x3bd9ebd8	0.006650429
129	0x3e4a2190	0.19739366
130	0xbe0c39e6	-0.13693962
131	0xbe42a998	-0.19010007
132	0xbe87d398	-0.2652862
133	0x3e7d35ac	0.24727505
134	0x3cb57701	0.022151472
135	0x3cc9e9ee	0.02464768
136	0x3e977ce6	0.29587477
137	0xbe12356b	-0.1427819
138	0xbe6e31ef	-0.23261236
139	0x3e90dd50	0.28293848
140	0xbe9b68ac	-0.30353296
141	0x3d2f9e11	0.042875353
142	0x3e85d649	0.2614005
143	0xbe43b9cd	-0.19113846
144	0x3c0d45ec	0.008622628
145	0xbcd70780	-0.026248693
146	0x3df43d6c	0.11925778
147	0x3ddb7156	0.107149765
148	0x3a740ff0	0.0009310236
149	0x3e630d28	0.22172987
150	0xbe3d755e	-0.18501803
151	0x3e4d64d8	0.20058
152	0xbe0d51e1	-0.13800766
153	0xbcd7d72e	-0.026347723
154	0x3d2c7ab1	0.042109195
155	0x3dc36c8e	0.095421895
156	0x3e3cd298	0.1843971
157	0xbd996365	-0.07489661
158	0xbe6b7095	-0.22992165
159	0xbd184c61	-0.037182216
160	0xbe827e8c	-0.25487173
161	0xbe653324	-0.2238279
162	0xbe4b1421	-0.19831897
163	0xbdb090c5	-0.086213626
164	0xbdc446d6	-0.095838234
165	0xbe5591de	-0.20856425
166	0xbda0103d	-0.07815597
167	0xbe6aa11f	-0.22913025
168	0x3dbe6a30	0.092975974
169	0xbe39bf6d	-0.1813943
170	0x3e03f9b7	0.12888227
171	0x3e8c3ac5	0.27388588
172	0x3c3eb848	0.011640616
173	0x3e78193b	0.24228375
174	0xbd27f682	-0.041006573
175	0x3d4be634	0.049780086
176	0xbe9868a4	-0.29767334
177	0x3e882c7c	0.2659644
178	0x3e524512	0.2053416
179	0x3c62ecab	0.013850371
180	0x3c4e2424	0.012581859
181	0xbe9b91ae	-0.30384582
182	0xbeaa74e7	-0.33292314
183	0xbd7fd114	-0.06245525
184	0x3d0117f0	0.03151697
185	0xbe93f783	-0.28899774
186	0xbd2f7130	-0.042832553
187	0xbda7f090	-0.082001805
188	0xbd8171ad	-0.0632051
189	0x3ca71f64	0.02040071
190	0xbe9722db	-0.2951878
191	0x3e6f1c66	0.23350677
192	0x3e583186	0.21112642
193	0x3e99cd2f	0.30039355
194	0x3ea1b90f	0.315865
195	0x3e9e2d42	0.30893904
196	0xbdecd443	-0.11563923
197	0xbda3301e	-0.07968162
198	0x3d8fc100	0.07019234
199	0x3e12fb0e	0.14353582
200	0xbd5f0921	-0.054452065
201	0xbdf7d000	-0.1210022
202	0x3d3e1edc	0.04641615
203	0xbe1f9945	-0.15585811
204	0x3cdfdcff	0.027327059
205	0xbde82042	-0.11334278
206	0xbd1afc6e	-0.037838392
207	0xbe0a414f	-0.13501476
208	0xbe6c6d0f	-0.23088478
209	0xbe53eb6b	-0.20695274
210	0x3e2758df	0.16342495
211	0x3e3075da	0.17232457
212	0xbe7caed8	-0.24676073
213	0x3e26a20c	0.16272753
214	0x3e93581c	0.2877816
215	0x3e7eabef	0.24870275
216	0x3e989a96	0.2980544
217	0x3e03a8a4	0.128573
218	0xbe09a37d	-0.13441272
219	0xbd4511cc	-0.048112676
220	0x3de69f6c	0.11260876
221	0xbd0ade9c	-0.033903703
222	0xbcefc8f6	-0.02927063
223	0x3e9dd681	0.30827716
224	0xbcd88392	-0.026429925
225	0xbe8d5f5f	-0.27611825
226	0xbeb03bfe	-0.3442077
227	0xbeaf76d5	-0.3427035
228	0x3e8fbaec	0.28072298
229	0xbe0e223a	-0.13880244
230	0x3e870f15	0.26378694
231	0x3cfd5ddb	0.030928543
232	0xbe5c563d	-0.21517272
233	0x3a890a06	0.0010455258
234	0x3e9535d8	0.29142642
235	0x3d4f3e6f	0.05059665
236	0xbd7f7f73	-0.062377404
237	0xbe48866e	-0.19582531
238	0xbd906d18	-0.07052058
239	0x3de3f90f	0.111314885
240	0x3e92994a	0.28632575
241	0xbded105d	-0.11575387
242	0x3e9e827b	0.30958924
243	0xbdb7a4d3	-0.089669846
244	0xbe5b7dde	-0.21434733
245	0x3e946372	0.2898212
246	0xbe101ea6	-0.14074191
247	0x3de75b1f	0.11296677
248	0xbd882e1c	-0.0664942
249	0xbe772bdb	-0.24137823
250	0x3d9f5f50	0.07781851
251	0x3d586038	0.052826136
252	0xbd946e04	-0.07247546
253	0x3e3b78b3	0.18307762
254	0xbec82b15	-0.3909537
255	0xbdb1f551	-0.086893685

network.0.bias f4 [64]
0	0xbd62258e	-0.055211596
1	0x3e05df17	0.13073383
2	0x3c69b7f3	0.014265048
3	0x3e1a29ed	0.15055056
4	0xbd875cc6	-0.06609492
5	0xbe3bd42b	-0.18342654
6	0x3de33941	0.11094905
7	0x3e9484f6	0.2900769
8	0xbd041a3b	-0.032251578
9	0xbe4f1d41	-0.20226003
10	0x3e5a971b	0.21346705
11	0xbe2eaad3	-0.17057352
12	0x3e27d6e8	0.16390574
13	0xbd17f99b	-0.037103277
14	0x3e29d2f9	0.16584386
15	0x3dccfd25	0.10009221
16	0x3df8fcdd	0.12157605
17	0xbe1adfdc	-0.15124458
18	0x3e42545d	0.18977495
19	0x3ea91d5c	0.33030212
20	0xbd4a857a	-0.0494437
21	0x3e76259d	0.24037786
22	0xbe28302f	-0.1642463
23	0xbe5fc3e4	-0.2185207
24	0x3e4d6e09	0.20061506
25	0xbe431f7a	-0.19054976
26	0x3dfab4db	0.12241527
27	0x3d35a4bb	0.044346552
28	0x3e8e5c8d	0.27804986
29	0x3e23a001	0.15979005
30	0x3e1c9cc7	0.15294181
31	0xbe0337d2	-0.12814263
32	0x3cda2256	0.0266277
33	0x3e2a6e5a	0.16643658
34	0x3d235510	0.039876044
35	0x3e54eee4	0.20794255
36	0xbde16879	-0.11006255
37	0x3e7d8f14	0.24761611
38	0xbdb8f6c9	-0.090314455
39	0xbe253b1d	-0.16135831
40	0xbe3a4204	-0.18189245
41	0x3dcf4ba3	0.101218484
42	0xbe31468e	-0.1731207
43	0x3bc3888c	0.0059672054
44	0x3e4b7964	0.19870526
45	0xbb9ea5d1	-0.004841544
46	0x3e9a16a2	0.30095392
47	0x3e8452be	0.25844377
48	0x3d5cd8ea	0.053917803
49	0x3bbaaf80	0.0056971908
50	0x3e4bec69	0.19914402
51	0x3da4db37	0.080496244
52	0xbdcf11dd	-0.10110829
53	0xbea0d784	-0.31414425
54	0x3e8bda22	0.2731486
55	0x3def75bb	0.11692377
56	0x3e745eaa	0.23864236
57	0x3deedfbb	0.11663767
58	0x3dddf31f	0.10837387
59	0xbe12779f	-0.14303444
60	0x3e10a300	0.1412468
61	0x3e52989c	0.20566028
62	0xbe00ae8b	-0.12566583
63	0x3e950abc	0.29109752

network.3.weight f4 [32, 64]
0	0x3e6d718e	0.23187849
1	0xbe46315f	-0.19354771
2	0x3ce17677	0.027522309
3	0xbe48ae82	-0.1959782
4	0x3e6491ae	0.22321197
5	0x3d550bad	0.052013088
6	0x3e801ef8	0.25023627
7	0x3da6195e	0.08110307
8	0x3ccb673d	0.024829501
9	0xbd3429f3	-0.04398532
10	0x3d7d4cb9	0.061840747
11	0x3dd5c7e0	0.10438514
12	0x3e3ba0ce	0.18323061
13	0xbdb19d14	-0.086725384
14	0x3dd7a1e8	0.10528928
15	0xbd0b2ff5	-0.033981282
16	0x3e795642	0.24349311
17	0x3c0413d3	0.008061367
18	0xbd60402a	-0.05474869
19	0x3e03e2b5	0.1287945
20	0x3d47e2f4	0.048800424
21	0x3cf22342	0.029557828
22	0xbcbc59e6	-0.022992086
23	0x3d82582b	0.06364473
24	0x3d4e8d20	0.050427556
25	0xbbf4af4f	-0.0074671875
26	0x3db82871	0.089920886
27	0xbd9bc822	-0.07606532
28	0x3dafaa05	0.085773505
29	0xbe15a693	-0.14614324
30	0x3d85d95c	0.06535599
31	0x3daa8a5f	0.083271734
32	0x3cb46e4d	0.022025252
33	0xbc8b7a1e	-0.017026003
34	0x3e2ed283	0.17072491
35	0x3d96a04f	0.07354795
36	0xbd5cbffa	-0.05389402
37	0x3dc4f972	0.096178904
38	0x3d29edf4	0.041486695
39	0xbddff2b7	-0.10934966
40	0x3e29cfc7	0.16583167
41	0x3d5b66a9	0.0535647
42	0xbc3d64da	-0.011559689
43	0x3d7057b3	0.058677386
44	0xbdd60af5	-0.10451309
45	0x3d818e99	0.063260265
46	0x3d9e2074	0.07721034
47	0x3d6469ea	0.05576507
48	0xbcb47a89	-0.022031086
49	0x3db75b94	0.08953014
50	0xbd92bde6	-0.071651265
51	0xbe15158a	-0.14558998
52	0x3d59a217	0.053133097
53	0xbd8c069f	-0.068372004
54	0xbd33181c	-0.043724164
55	0xbc6c464b	-0.014421056
56	0xbd004b6b	-0.031321924
57	0x3e6db82b	0.23214786
58	0x3d85164d	0.06498394
59	0x3dc02721	0.09382463
60	0xbdaf8aac	-0.085713714
61	0x3d3066bc	0.043066725
62	0x3d9370d7	0.07199257
63	0x3e54b80b	0.20773332
64	0xbd86251d	-0.065500475
65	0xbd19760e	-0.0374661
66	0x3db263e3	0.08710458
67	0xbb9529c6	-0.004552099
68	0xbdc4b978	-0.09605688
69	0xbdb5abce	-0.0887066
70	0x3d908103	0.07055857
71	0xbde5557b	-0.11197945
72	0xbd36bb9b	-0.04461251
73	0x3dc25e6a	0.09490664
74	0x3d32d85d	0.04366337
75	0xbdf379c0	-0.11888456
76	0x3d25c83f	0.040474173
77	0x3cfc76a2	0.030818287
78	0x3d438261	0.04773176
79	0x3d646d6f	0.055768427
80	0xbd6d7396	-0.05797156
81	0xbddd0eb0	-0.10793817
82	0xbd0d9ab5	-0.03457137
83	0x3b6d4c7f	0.0036208925
84	0xbded8d52	-0.1159922
85	0xbd3a5e3b	-0.04550002
86	0xbd704229	-0.058656845
87	0x3d92ec3d	0.07173965
88	0xbdf7d200	-0.12100601
89	0xbd9e65d7	-0.07734268
90	0x3dba80ac	0.091065735
91	0xbdb2d0a7	-0.087312035
92	0xbcbe4c05	-0.023229608
93	0xbcf8fcb1	-0.03039393
94	0x3cb3f70e	0.02196839
95	0xbd88850b	-0.06666001
96	0x3dafd3f2	0.08585347
97	0xbd792531	-0.060826484
98	0x3d64e973	0.055886697
99	0x3d183603	0.037160885
100	0xbd8d8ade	-0.069112524
101	0x3df311b3	0.1186861
102	0x3cde0d72	0.02710602
103	0xbcb9b8b6	-0.022671085
104	0xbdf45072	-0.11929406
105	0x3ce27560	0.02764386
106	0xbde0e0dc	-0.109803885
107	0xba1a6067	-0.0005888999
108	0xbd82efd9	-0.063934036
109	0xbe09c995	-0.13455804
110	0xbac98c85	-0.0015376961
111	0xbd34237c	-0.043979153
112	0x3cc3ec40	0.023916364
113	0x3c026111	0.007957713
114	0xbd078d60	-0.03309381
115	0xbdc06b53	-0.093954705
116	0x3d4e0984	0.050302044
117	0x3dec13f3	0.115272425
118	0xbdbc22ad	-0.091863014
119	0xbda73c89	-0.08165843
120	0xbcbb537e	-0.02286696
121	0xbe010c61	-0.12602378
122	0xbde96054	-0.11395326
123	0xbdd68666	-0.10474853
124	0xbd06da70	-0.032923162
125	0x3dd5e19c	0.10443422
126	0xbda4daa5	-0.08049516
127	0xbdc0c060	-0.094116926
128	0xbda13d90	-0.0787307
129	0x3d86e332	0.06586303
130	0x3df65363	0.120276235
131	0xbc0dea86	-0.008661872
132	0x3ccc35e6	0.024928045
133	0xbd03c4aa	-0.032169975
134	0x3b9e583a	0.004832295
135	0x3dc5907a	0.09646697
136	0x3d99d458	0.075112045
137	0x3dd3e238	0.10345882
138	0xbd03d8f1	-0.032189313
139	0xbc3010b4	-0.01074617
140	0x3c6566e7	0.014001585
141	0xbd8174c5	-0.063211
142	0xbe137a01	-0.1440201
143	0x3dabb8e3	0.08384874
144	0xbe4f0d8c	-0.20220011
145	0x3cff1116	0.031136077
146	0x3d8d4776	0.06898396
147	0xbda0eb55	-0.07857386
148	0xbd82ddb9	-0.063899465
149	0xbc07dac7	-0.008291907
150	0xbe3260c3	-0.17419724
151	0x3e4ecb64	0.20194775
152	0x3c82e8d5	0.015980164
153	0xbdc647cc	-0.09681663
154	0xbd1fdb1a	-0.03902731
155	0xbb392c68	-0.0028255228
156	0x3d444e03	0.04792596
157	0x3dadae98	0.08480567
158	0xbb7bf6b6	-0.0038446612
159	0xbe19091c	-0.14944881
160	0x3dca13f4	0.09867087
161	0x3e45bcbc	0.19310278
162	0xbd9dca3e	-0.0770459
163	0x3d9ae6fc	0.07563588
164	0x3db8f1b7	0.090304784
165	0xbdc38cea	-0.095483616
166	0xbb91f214	-0.004453907
167	0xbd5969ca	-0.053079404
168	0xbe1751fc	-0.14777368
169	0xbda11766	-0.07865791
170	0xbd6cb5b5	-0.057790477
171	0x3d0e21dc	0.03470026
172	0x3dcd2ffb	0.10018917
173	0xbd8078a0	-0.062730074
174	0x3d5b6431	0.053562347
175	0x3df78b16	0.120870754
176	0xbd7e6ccf	-0.062115487
177	0xbde99b8e	-0.11406623
178	0x3e00ca41	0.12577154
179	0x3e02f565	0.12788923
180	0xbe16cf3e	-0.14727494
181	0x3e1771e3	0.14789538
182	0x3d85c8c2	0.06532432
183	0x3dfd0ab5	0.12355558
184	0x3e2f52b5	0.17121394
185	0xbd41a55d	-0.047276843
186	0xbd05b2fd	-0.0326414
187	0x3da36686	0.07978539
188	0xbcf8776a	-0.030330379
189	0xb9e53f3a	-0.0004372539
190	0xbcd7a236	-0.026322465
191	0x3cb7b5ef	0.02242562
192	0x3e5189fd	0.20462795
193	0xbd861be5	-0.06548289
194	0x3d944bfc	0.07241055
195	0x3bdb24f4	0.0066877548
196	0x3d5f4f6a	0.054519095
197	0x3e30ac02	0.17253116
198	0x3e1ce856	0.15323004
199	0xba210dd0	-0.0006143721
200	0xbd2caf9a	-0.042159654
201	0x3d59e22e	0.053194217
202	0x3d3b9b3c	0.04580234
203	0xbcdf2a06	-0.027241718
204	0x3de957c3	0.11393692
205	0xbe0b113c	-0.13580793
206	0x3e6ed554	0.23323566
207	0xbd384b04	-0.044993415
208	0x3c17f549	0.009274789
209	0x3d7c3d1d	0.06158172
210	0x3d15c726	0.036566876
211	0x3c955fa8	0.018234089
212	0x3d8f5295	0.06998173
213	0xbd0be908	-0.034157783
214	0xbdc5448d	-0.09632216
215	0x3c4d2b7c	0.0125225745
216	0xbd555b88	-0.052089244
217	0xbdb7ae2c	-0.089687675
218	0x3db96776	0.09052937
219	0x3ba25ce1	0.0049549197
220	0x3dc7a7ee	0.09748827
221	0x3ad11765	0.0015952407
222	0xbd78bd6a	-0.060727514
223	0x3dcf5fa5	0.101256646
224	0x3c3279fd	0.010893342
225	0xbd7f7b5d	-0.062373508
226	0x3e4ef1b3	0.20209388
227	0x3d29993f	0.041405912
228	0xbd0482cf	-0.03235131
229	0x3d8c2d4d	0.06844578
230	0x3d8c9481	0.06864262
231	0x3d3c90ef	0.046036657
232	0x3d445eef	0.0479421
233	0xbdb8366a	-0.08994754
234	0x3dabf380	0.08396053
235	0xbdc06365	-0.09393958
236	0xbe31d22b	-0.17365329
237	0x3e132d36	0.14372715
238	0xbdcb5050	-0.09927428
239	0x3cffadba	0.031210769
240	0xbdfb9c77	-0.12285703
241	0x3e287935	0.16452487
242	0x3d4a46af	0.049383815
243	0xbdea6c7e	-0.114464745
244	0xbda7565d	-0.08170769
245	0xbc5060c1	-0.01271838
246	0xbc804119	-0.015656041
247	0xbe19563b	-0.149743
248	0x3c8db0c5	0.017296204
249	0x3c836618	0.016039893
250	0x3d817fa1	0.063231714
251	0x3dd5c54d	0.10438023
252	0x3d9660d8	0.0734269
253	0x3c920800	0.01782608
254	0xbb03b789	-0.002009841
255	0x3dd1c778	0.10243124

network.3.bias f4 [32]
0	0x3e0030a7	0.1251856
1	0x3d9c247b	0.076241456
2	0x3caa0af8	0.020757183
3	0xbda69956	-0.08134715
4	0x3d8c6143	0.06854489
5	0xbd00fa4d	-0.031488705
6	0x3d6f4b5c	0.058421478
7	0xbd943899	-0.07237358
8	0xbd1027df	-0.035194274
9	0x3e1cc87f	0.15310858
10	0xbc4557e9	-0.012044885
11	0x3ddc5407	0.107582144
12	0x3cf4aeb1	0.029868456
13	0x3dea51b6	0.114413664
14	0x3d5fb1cd	0.054612923
15	0x3d9c2d99	0.076258846
16	0x3df54a24	0.11977032
17	0x3be29f23	0.006915943
18	0x3ce6de51	0.02818218
19	0xbd300865	-0.042976756
20	0x3e571875	0.21005423
21	0x3e147d9f	0.14501046
22	0x3dffd057	0.124909095
23	0xbbeab954	-0.007163206
24	0x3df6338a	0.12021549
25	0x3d5daf22	0.054122098
26	0x3df0cd44	0.11757901
27	0x3e20eb14	0.15714675
28	0x3d991838	0.074753225
29	0x3ddb4dd8	0.10708207
30	0x3d6ce9b9	0.057840083
31	0x3ddb82e5	0.107183255

network.6.weight f4 [1, 32]
0	0x3df08cbd	0.11745594
1	0xbc375c9b	-0.011191512
2	0xbde825f7	-0.11335366
3	0x3e8796b3	0.26482162
4	0x3deca410	0.1155473
5	0xbe67e1d1	-0.22644736
6	0xbe416016	-0.1888431
7	0xbe4a721b	-0.1977009
8	0x3e5e2de1	0.21697189
9	0xbdd75c8c	-0.10515699
10	0xbdfd0554	-0.12354532
11	0xbe62b557	-0.22139488
12	0x3e626021	0.22106983
13	0x3e8a14da	0.26969033
14	0xbe6919cf	-0.22763751
15	0x3e824e7d	0.25450507
16	0xbe48173b	-0.19540112
17	0xbe134773	-0.14382724
18	0x3e1f1ae8	0.15537608
19	0xbe3a96d7	-0.18221603
20	0x3e219fa0	0.15783548
21	0x3e0ff4d5	0.1405824
22	0xbe5929d0	-0.21207356
23	0xbe66ef18	-0.22552145
24	0x3e4789c9	0.19486155
25	0x3e5b4f37	0.21416937
26	0xbe40f923	-0.18845038
27	0x3e239802	0.15975955
28	0x3e3062c1	0.17225172
29	0xbe55ee10	-0.20891595
30	0xbddad74e	-0.10685597
31	0xbe2bb6e5	-0.16768987
