best_model.pth (torch, 14566 bytes, 5 tensors)

network.0.weight f4 [64, 12]
000000 fa 4b 47 be e0 f4 6a 3d 55 fd 10 3e 93 ba 48 bd
       -0.19462577 0.057362437 0.14159139 -0.049006056
000010 98 c6 80 3e ff bc 32 be 72 4e ac be 67 ee 02 be
       0.25151515 -0.17454909 -0.336536 -0.12786256
000020 2a 2e 77 3e 9c ce 9a 3e 80 8e 0c be 9c 16 56 3c
       0.24138704 0.30235755 -0.13726234 0.013066914
000030 39 ed f9 bd d6 46 5c 3e c9 e4 31 3e fe a1 cc 3d
       -0.1220345 0.21511397 0.17372431 0.09991835
000040 60 1f 6e be f8 54 a1 be 35 00 6a be 76 33 9d be
       -0.23254156 -0.3151014 -0.22851641 -0.30703324
000050 a3 ea be 3d 12 6b 86 be f3 bf 7d be 2d 34 d3 bd
       0.09322097 -0.26253563 -0.24780254 -0.10312686
000060 da 76 91 3e 60 31 00 bd eb e7 0c 3e b7 14 85 3e
       0.2841099 -0.031297088 0.13760345 0.25992367
000070 b8 cd 90 be 2f 3d 7e 3e 42 5c 86 be 6a 89 78 be
       -0.2828195 0.24828027 -0.26242262 -0.2427117
000080 2e a0 92 3e 67 94 0c 3e 83 42 6f 3e 26 be 62 3e
       0.28637832 0.13728486 0.23365216 0.22142848
000090 46 de 18 3e 0d a6 48 3e 7b 5a 7a bd 1b f4 48 3e
       0.1492854 0.19594593 -0.061121445 0.19624369
0000a0 e5 cc ad be 18 fe c4 3e 61 7c 5f 3e d0 fd 28 bc
       -0.33945385 0.38475108 0.2182479 -0.01031442
0000b0 b2 5c 12 3e f0 e0 8f 3d 9d 7a 03 3e 46 b2 9c be
       0.14293173 0.07025325 0.12839742 -0.30604762
0000c0 4f dd 90 3e dd 20 8a 3e ec f4 1f be f6 b7 c9 bd
       0.28293845 0.26978198 -0.15620774 -0.09849541
0000d0 3f 21 61 3d 1d 31 c3 bd 89 40 3e 3d 49 7d c9 bd
       0.054963347 -0.09530852 0.046448264 -0.09838349
0000e0 8a 69 51 3e ac 40 0c be 20 11 b0 be 19 1f 30 3e
       0.20450416 -0.13696545 -0.34388065 0.17199363
0000f0 73 2d 43 be 8e 2e c7 bb 31 62 71 be 3e e4 66 bc
       -0.19060306 -0.006078548 -0.23572613 -0.014092503
000100 a5 a6 64 be ba aa 1e be b5 05 38 be e3 29 61 3e
       -0.22329195 -0.15494815 -0.17970927 0.21988635
000110 6f 9d 44 be e7 36 39 3e 47 c8 7a be d4 76 3e 3e
       -0.19200681 0.1808735 -0.24490462 0.18600017
000120 49 fc 2f 3e 92 fb 4b be 5a 2d 39 be 7b 93 80 3c
       0.17186083 -0.19920185 -0.18083706 0.015695324
000130 e2 f5 9d be ce 05 3b bd c1 8e ca bc a2 24 7d be
       -0.30851656 -0.045659833 -0.024726273 -0.24721006
000140 3f b2 53 3e 16 41 79 3d d0 cf 0b 3d a6 de 64 be
       0.20673464 0.060853086 0.034133732 -0.22350559
000150 ea cd 13 3e 6e 60 ca bd f7 ff 23 3e 3e bc e4 bd
       0.14434019 -0.09881674 0.16015612 -0.11168717
000160 a6 09 89 3d 6e 14 54 3e da 92 a8 3d 6d 79 6a 3e
       0.066912934 0.20710918 0.08231135 0.22897883
000170 d2 a1 39 3e 48 fb 29 bc d0 29 8c be 5d ed 17 bd
       0.18128136 -0.0103748515 -0.2737565 -0.0370916
000180 0f db 34 3e 08 ec 82 be 50 d9 76 be dd cd 1c 3e
       0.17661689 -0.25570703 -0.24106336 0.15312906
000190 ef 84 70 bd e6 24 65 be 04 e7 83 3e e6 83 78 be
       -0.058720525 -0.22377357 0.25762188 -0.24269065
0001a0 95 02 60 3e 4e e5 ab bc 59 a4 1a 3d 77 1f 85 bd
       0.21875985 -0.020983364 0.03775439 -0.06500142
0001b0 81 8c f9 3c 2d cb ca 3d 13 69 8a 3e c8 09 5e be
       0.030462505 0.09902034 0.2703329 -0.21683419
0001c0 b9 38 b2 bd d1 15 4e 3d 1e a2 9f be 99 00 81 3e
       -0.08702225 0.050313774 -0.31178373 0.25195768
0001d0 c7 0d 61 3d 9e aa a4 3d 7c d4 94 be 14 46 02 be
       0.05494478 0.08040355 -0.29068363 -0.12722045
0001e0 af be 9f 3d aa 25 88 bd eb 20 83 be 00 2f 17 3e
       0.07800042 -0.06647809 -0.25611052 0.14764023
0001f0 69 21 71 3e 8a 50 85 be 7e 3c 32 3d db ea 81 3c
       0.23547901 -0.2603801 0.04351472 0.015859058
000200 53 a7 92 3e 05 13 85 3d 3d 73 03 be 3f fc 94 3d
       0.28643283 0.06497768 -0.12836929 0.072746746
000210 03 26 ae bd 5b 1a 94 be e6 92 65 3e 57 a5 3c 3e
       -0.08503344 -0.28926358 0.22419319 0.18422447
000220 a8 83 3c 3e b4 0c 8e 3e 3a c8 83 3d c2 43 87 3d
       0.18409598 0.27744067 0.064346746 0.06604721
000230 d6 29 5c be 3f 65 ea 3d 6c 14 79 3e 69 ac b3 be
       -0.21500334 0.114450924 0.24324197 -0.35092476
000240 11 61 0d be e5 d4 e5 bd 23 dd 9f 3e e3 94 2e 3e
       -0.13806559 -0.11222247 0.312234 0.17048983
000250 03 fa 81 3c c4 53 e0 3d c4 f5 ff bd ef 16 a3 3c
       0.015866285 0.10953477 -0.12498048 0.019908397
000260 f1 52 b0 3c 61 20 69 3d 5e 74 0a bd f6 dc 4f 3b
       0.021523925 0.056915645 -0.033802383 0.0031717396
000270 0d 2b 38 3e 63 26 8f be 4f c6 99 3e 96 c3 d6 3e
       0.17985173 -0.27958974 0.3003411 0.41946095
000280 77 fb 3f be b6 a2 d4 3d 2b ed 0e 3d e9 4f b7 be
       -0.1874827 0.10382597 0.03489415 -0.35803154
000290 e0 cd 09 be bc e3 d4 3d 3a 6e 89 3d 29 04 a3 be
       -0.13457441 0.103949994 0.06710477 -0.3183911
0002a0 a9 97 37 be b6 09 44 be 8c 4d 19 bd fb 3e 2a be
       -0.17928948 -0.1914433 -0.03742747 -0.16625588
0002b0 9d 41 12 3e 06 0c 68 be 57 b0 54 be d4 14 f9 3d
       0.14282842 -0.22660837 -0.20770393 0.12162176
0002c0 de f8 ba 3b 8e f2 08 be 97 0c aa 3d 8e fc ab be
       0.005705937 -0.13373777 0.083031826 -0.3359112
0002d0 13 b9 d3 3d 62 9c d0 3c f6 15 f1 bd e4 e3 21 3e
       0.103380345 0.025465194 -0.11771767 0.1580959
0002e0 7c 56 90 be 95 38 b6 bc 16 7f 8a 3e 94 fb 23 3e
       -0.28190982 -0.022243777 0.27050084 0.16013938
0002f0 95 d6 54 3e 4f d1 df bd e3 31 25 3e b8 fb 51 be
       0.20784982 -0.10928594 0.16132312 -0.2050618
000300 71 be ce bc 9e e0 5f be 2c 43 62 be 09 ab 94 3e
       -0.025237294 -0.21863028 -0.22095937 0.2903674
000310 d7 0c dc 3d 04 94 d8 bd 9a 65 a8 3d 51 2c 28 be
       0.107446365 -0.10575107 0.08222504 -0.16423155
000320 2c 23 5e bd 2f a4 79 bd c6 ee 0e 3e 1d 34 4b 3e
       -0.05423276 -0.060947593 0.13958272 0.19844098
000330 75 7d 23 be 3b 0f 97 3e 6e c4 95 3d 1f db c4 3c
       -0.15965827 0.29503807 0.073128566 0.024030266
000340 58 b8 81 be eb 88 d1 bd d3 65 b0 3d ba bd ac 3e
       -0.25335956 -0.10231193 0.086131714 0.337385
000350 c2 14 26 3e bf 6b 64 be a9 40 d8 bd 52 97 f1 bb
       0.16218856 -0.22306727 -0.10559208 -0.007372775
000360 2c db 32 3e 07 93 2e be ec 21 18 3e 03 ba fe bd
       0.1746642 -0.17048274 0.1485669 -0.12437823
000370 d4 62 52 3e 66 80 a4 bc 80 37 95 be da a8 14 3d
       0.20545512 -0.020080756 -0.29143906 0.036293842
000380 24 ef 8f bd 3c f0 b5 3d 2f ac 86 be bb 4f ee 3d
       -0.07028034 0.08883712 -0.2630324 0.11636301
000390 18 3f c5 be 39 2e 81 3e cd 2c bd be 8e 3a aa 3c
       -0.385247 0.25230578 -0.36948243 0.020779874
0003a0 47 3c 8c bd aa 4d 21 3e 96 74 8d be 08 32 3d 3e
       -0.068474345 0.15752283 -0.2762801 0.18476117
0003b0 a2 0e 68 3e c3 80 4f 3e b7 ef 82 3d 33 33 1a be
       0.22661832 0.20263962 0.06393378 -0.15058593
0003c0 03 7f 6a 3d 11 81 7a 3e 6d 05 21 be 40 22 07 bd
       0.057250034 0.24463297 -0.15724726 -0.032991648
0003d0 8d c1 af bd f3 5e 48 be e2 73 e3 bd 76 b1 84 be
       -0.08581839 -0.1956747 -0.11106087 -0.25916642
0003e0 b5 ad 1b 3e dc b0 64 3e 20 42 3b 3d da 40 c9 bd
       0.15202983 0.22333091 0.04571736 -0.098268226
0003f0 fa 69 49 bd d4 9d 6e be 49 e8 bc bd b5 15 98 be
       -0.049173333 -0.23302394 -0.092239924 -0.2970406

network.0.bias f4 [64]
000000 ad 99 fa bd 4c 9a 1c be 1a 2a 67 be 89 ee 99 3e
       -0.122363426 -0.15293235 -0.22574654 0.300648
000010 e1 e9 51 be b6 56 88 3e 20 32 a9 3e 20 15 8c 3e
       -0.20499374 0.26628655 0.33046055 0.27359867
000020 d3 9d 4d be c7 50 24 3e 40 c7 43 3d f9 a8 9d bd
       -0.20079736 0.16046439 0.04779744 -0.076982446
000030 09 09 1a 3d dc ff 6c 3d 7b 27 dd 3d 2c 11 6c be
       0.037606273 0.057861194 0.10798546 -0.23053426
000040 48 f4 5a 3d 23 5a 88 be 1d a5 99 3e ac f2 92 bc
       0.05345562 -0.2663127 0.30008784 -0.01793798
000050 64 26 84 3e fe c2 4e 3e 3d 3f 2b bd d7 77 44 3e
       0.2581054 0.20191571 -0.041808356 0.1918634
000060 c3 40 23 3e 09 a4 3c be 3e 0b a8 be e9 4d 86 be
       0.15942673 -0.1842195 -0.32821077 -0.26231316
000070 46 c2 48 3e 19 54 52 be e5 39 2e 3e 6a ea 00 3e
       0.1960536 -0.20539893 0.17014273 0.12589422
000080 b8 8a 6e be 75 b6 37 bc 84 78 8a 3d 27 dd 46 3e
       -0.23295105 -0.011212935 0.06761268 0.194203
000090 e9 9f f0 3d 4c bc fe 3d e3 29 5e 3e 12 37 15 3e
       0.117492504 0.124382585 0.21695666 0.14571789
0000a0 30 6c 6f 3e 66 ab 4e 3e ac 3c 9c bd f8 4b a5 3d
       0.23381114 0.20182571 -0.0762876 0.080711305
0000b0 da 82 19 be 0f a8 5b 3e 44 65 0d be 35 51 20 3e
       -0.14991322 0.21450828 -0.13808161 0.15655978
0000c0 59 8b 97 bd 41 35 97 3e 27 70 84 3e 04 7b 5b be
       -0.07399625 0.29532817 0.25866815 -0.21433645
0000d0 55 bb 80 3c ff c3 39 be 19 71 8a bc 71 3c 4c bd
       0.015714327 -0.18141173 -0.016899632 -0.04986233
0000e0 0b fb a8 bd 0d 02 ba 3d 7f fd 81 3e de f0 c8 3d
       -0.08251008 0.090824224 0.25388715 0.09811567
0000f0 35 c8 88 3e 74 17 83 be bf fb 57 3e 8b b9 45 3e
       0.26715246 -0.2560383 0.21092127 0.1930906

network.3.weight f4 [32, 64]
000000 5c 2d f7 3c f9 19 e8 3d d8 48 1f bd de 78 ea bd
       0.030172996 0.11333079 -0.03888783 -0.11448835
000010 0c c6 04 3c 4c d2 43 3d cb 81 8b 3d 02 ab c7 3d
       0.008103859 0.047807977 0.068118654 0.09749414
000020 64 5c c9 bd c4 40 85 bd d5 1a 37 3e 25 24 18 3b
       -0.09832075 -0.06506494 0.1788133 0.0023214903
000030 5e 43 58 bd 8f 83 e3 bd 8e 2d 17 3e db ed 5c bc
       -0.05279862 -0.11109077 0.14763471 -0.013484444
000040 05 0e b1 3d 43 3a ac bc 14 34 f0 bb 10 50 1f 3e
       0.08645252 -0.021023875 -0.007330427 0.15557885
000050 d9 2d 09 3e bc 5b ec 3d ab 46 88 3d 56 46 ff 3d
       0.13396396 0.115409344 0.06654104 0.124645874
000060 be ba be bc 0e e8 22 bd 78 c1 c4 bd ef 62 20 bd
       -0.023282405 -0.039772086 -0.09607214 -0.03915685
000070 71 63 ee bc e1 4c 3e 3d 8f fd 03 3b e8 e9 eb 3d
       -0.029100152 0.046460036 0.0020140146 0.115192235
000080 4a 06 1a bd 34 55 6f 3d c0 65 8d bd f6 48 b2 3d
       -0.037603654 0.058430865 -0.06904173 0.087053224
000090 ff 70 cb 3d d7 7e 6f 3d 31 d9 06 3d fe ec 38 3e
       0.09933662 0.058470573 0.032921974 0.18059155
0000a0 29 5e 6a bd f9 18 3e 3b 5a 61 9b 3c c2 a6 0b bb
       -0.057218704 0.0029006584 0.01896732 -0.0021309112
0000b0 ca 63 c3 3d 48 d7 07 3e 1a ea 60 3e 08 6b ff 3d
       0.09540518 0.13265717 0.21964303 0.124715865
0000c0 69 a1 dc bc 33 72 bf bd cb ca 43 bd 9a 74 9d 3d
       -0.026932435 -0.09347954 -0.04780082 0.076882556
0000d0 73 d8 99 bd 8f 52 06 be 2d bb 27 3d 35 0b 33 3e
       -0.075119875 -0.13117431 0.04094999 0.17484744
0000e0 50 7e 7d 3e 26 7f b3 3c 60 84 b2 3c 97 47 d4 bd
       0.24755216 0.021911215 0.021791637 -0.10365217
0000f0 d4 69 0c 3e 37 14 e3 bc 7b dd d9 3b 6d 87 3f bd
       0.13712245 -0.0277196 0.006648717 -0.04676001
000100 f8 2a 91 bd 8c d9 6c 3d 04 dd b7 3d ae 22 d0 3d
       -0.07088274 0.057824656 0.08977702 0.101628646
000110 df fa 7c bd 82 da 9c 3d d6 0b b5 bd 48 bf 8b bd
       -0.061762687 0.076588646 -0.08840148 -0.068235934
000120 70 6a 01 3e aa dc 03 3d 4e 40 11 bd 00 65 7f bd
       0.12638259 0.032192864 -0.035461716 -0.06235218
000130 ba b1 ae 3d 31 40 eb bd 7a eb a9 3c bc 89 64 bd
       0.085299924 -0.11486853 0.020742167 -0.055795416
000140 62 b3 b1 bd 52 59 1f be 59 94 83 bd 3c c6 bb 3c
       -0.08676793 -0.15561417 -0.064247794 0.022921674
000150 03 18 93 3d d9 61 dc bd 7c e8 30 bc 9b a0 6f 3d
       0.07182314 -0.107608505 -0.010797616 0.058502775
000160 58 6b 1b bd 84 79 a2 3d 72 50 5e 3d 5e 11 86 bd
       -0.037944168 0.079333335 0.054275937 -0.06546281
000170 9a 76 d2 3d bf 34 4a 3c f4 ed d3 bd ed c6 a4 bc
       0.10276528 0.012341677 -0.1034812 -0.020114386
000180 1c 51 86 3d 00 c9 ae 3c 54 e3 a5 bd 0c 1e 43 3c
       0.06558439 0.021336079 -0.081 0.011909019
000190 95 42 74 bc 2f f6 e9 bc 04 e1 aa 3c 2c 06 87 bd
       -0.0149084525 -0.028559772 0.020859249 -0.06592974
0001a0 8b 34 ae bd a0 bc 06 be 3f a1 4d bd 58 8a 90 bd
       -0.085061155 -0.13157892 -0.050202604 -0.07057637
0001b0 9a 02 ee 3d be 92 02 3c a1 9b d5 3c 9d ad 9c 3d
       0.1162159 0.007969556 0.026075186 0.076503016
0001c0 4d 3a a1 bd 75 5e ff bd ed 32 14 3d 6e 0f 9d 3d
       -0.07872448 -0.12469188 0.03618138 0.076689586
0001d0 96 3c 98 bd f2 0b e4 3d f4 e9 a9 bd c4 0e d6 3c
       -0.07433431 0.11135091 -0.08296576 0.026130088
0001e0 0a b6 e2 bd f2 49 ca bd 81 f2 64 3d 14 54 72 bd
       -0.110698774 -0.09877385 0.055895332 -0.059162214
0001f0 65 9e ac 3d 74 2a d2 bb 3d c5 b5 bd 5d 51 7f 3d
       0.08428649 -0.006413752 -0.08875511 0.062333453
000200 0d 0e a9 3c ab 7c 82 bd 3d cf 84 3d 32 88 51 3e
       0.020636583 -0.06371435 0.0648484 0.2046211
000210 ff f8 b0 3c 9b 98 0b be 7b f4 f5 3d 8c ed 07 3d
       0.021603106 -0.13632433 0.120095216 0.033185527
000220 e9 51 c7 3d 76 f5 a7 3d a3 7d 8a bd 53 8d 02 3e
       0.0973242 0.08201115 -0.067622446 0.12749223
000230 09 37 0b 3e b5 fc 2b 3e e3 e6 7c be 2e cf 91 bc
       0.13595213 0.16795619 -0.24697451 -0.017798986
000240 a1 ba da 3d 5d 6e a0 bd 26 7c d3 3c a2 7d 28 bd
       0.10680128 -0.0783355 0.025816035 -0.041135438
000250 16 41 ec 3b e2 a4 22 be 73 87 8a 3d b3 97 94 bd
       0.0072099073 -0.1588321 0.06764116 -0.07255497
000260 5b 7f ee 3d f4 62 e6 bd 0e 7c df bc ad a9 29 3e
       0.11645385 -0.112493426 -0.027280834 0.16568632
000270 d7 9f 09 3e 3b c0 af bc fa c7 56 3d 53 9b 55 bd
       0.1343988 -0.021453967 0.052436806 -0.05215008
000280 5c 43 8f 3c c6 dc 61 ba cb e8 cf 3c f4 41 17 3e
       0.017488174 -0.00086159667 0.025379559 0.14771253
000290 d3 fb e3 bd 62 31 46 3e aa 84 93 3d ec e7 10 bd
       -0.11132016 0.19354776 0.07203038 -0.035377428
0002a0 86 1d ae 3d ae 01 02 be 74 74 f5 3d 98 40 de bb
       0.08501725 -0.12695953 0.11985102 -0.0067826025
0002b0 a7 d6 a1 3a de fa 91 3d 34 d3 2b be d9 8a cb bb
       0.0012347297 0.07127927 -0.16779786 -0.0062116203
0002c0 08 a9 a5 3d 68 f3 66 3d 46 ad 54 3e 96 04 4f bd
       0.08088881 0.056384474 0.20769224 -0.050541483
0002d0 32 9b 0a 3e e7 1b 43 3d f6 b7 d6 3c 29 30 d9 bc
       0.13535765 0.04763403 0.026210766 -0.026512222
0002e0 4a 40 43 be c0 d1 cb bd 79 1e 15 be fb bd a3 3d
       -0.19067493 -0.09952116 -0.14562406 0.0799522
0002f0 8e 93 e3 bd 45 63 18 3d c3 ee 5e bd 32 e5 7d 3e
       -0.11112128 0.037204046 -0.05442692 0.24794462
000300 7d 3c 95 3d 07 dd d1 3d be c8 0a be 8d bb 4a be
       0.07286928 0.10247236 -0.1355314 -0.19798107
000310 db d9 23 bb f3 1d bf 3d 23 5c 90 3d 9b fe 8a 3d
       -0.0025001678 0.09331884 0.07048824 0.067868434
000320 c2 13 ad 3d e4 cd 93 bd 16 35 0b 3e 87 14 d5 bd
       0.08451034 -0.07217005 0.1359447 -0.10404306
000330 a1 03 90 bd 22 1f 5f bd 37 31 d0 3d fd 43 b2 bd
       -0.07031942 -0.05447305 0.10165637 -0.08704374
000340 c2 04 66 bd b4 09 05 bd 0c ce 8b 3c 33 e1 1a 3d
       -0.05615688 -0.032479957 0.017066024 0.037812423
000350 ba aa cd 3d 7c af 57 3d 6c 73 64 3d 75 c2 9b 3c
       0.10042329 0.05265759 0.055774137 0.019013623
000360 e4 45 1e bd ef 71 a4 3d 7f 02 9f bd 16 38 8a 3d
       -0.03864087 0.080295436 -0.07764148 0.06748979
000370 0b aa 73 3d 1f 40 0f bd 1a 00 0b bd dc 64 15 3d
       0.059488337 -0.03497326 -0.033935644 0.03647314
000380 19 41 d2 3c ae a7 47 bb e7 f8 13 bd b1 f3 ca 3c
       0.025665807 -0.0030464935 -0.036126044 0.024774404
000390 52 17 56 3e 5b 16 c4 3d 01 69 09 3c 5e ff 01 3e
       0.20907333 0.095745765 0.008386851 0.12695071
0003a0 75 8f df bd 71 d8 3f 3d 26 45 2f be 5c 74 67 3e
       -0.10916034 0.046837274 -0.17116222 0.22602981
0003b0 27 64 46 3e 56 69 3a 3c 21 ff 5f 3e 51 2a c6 3b
       0.19374143 0.011377653 0.21874668 0.006047525
0003c0 6c d0 3c be c7 60 52 be 8e a2 81 3d a6 6b 6a bd
       -0.18438882 -0.2054473 0.06329833 -0.057231568
0003d0 fe 14 0a be 68 d4 ae bd f2 0b ea bc b2 9a 45 bd
       -0.1348457 -0.08536607 -0.02857015 -0.048243232
0003e0 e3 60 8e 3e fa a3 4a 3e 88 6c 76 3d 0d 98 b9 bd
       0.27808294 0.19789115 0.060162097 -0.090622045
0003f0 90 04 30 bc 7f 2b 44 3d b0 66 30 bd 08 bb a1 bc
       -0.010743275 0.047893044 -0.04306668 -0.019742504

network.3.bias f4 [32]
000000 45 d8 9c 3d e5 1e d8 bd 94 0c d9 3d 16 e5 04 3e
       0.07658438 -0.10552768 0.10598102 0.12978014
000010 27 e3 76 3c 9a 8c 07 3e be 7a 08 be 1f 7d 0b 3b
       0.015068806 0.13237229 -0.13328072 0.0021284295
000020 e8 0b 52 3c 0e d6 48 3d 7d 16 06 3e c1 e1 f5 bc
       0.0128202215 0.049032263 0.13094516 -0.030014874
000030 3c da 84 3b 7d f8 17 bb ba 53 58 3d c8 e8 95 3d
       0.004054336 -0.0023188882 0.052814223 0.0731979
000040 87 57 a3 bc 3c 8f 40 3e 6e 92 4c 3c 38 e8 e4 3d
       -0.019939197 0.1880464 0.012486083 0.11177105
000050 cd 17 5b bc a5 3b 07 3e 2b 0e 1e 3e 78 35 bf bd
       -0.013372374 0.13206346 0.15435092 -0.0933637
000060 84 17 3b 3e ba 53 00 3e 74 c1 62 bd 5a 56 2c 3e
       0.18270689 0.12531939 -0.055360273 0.16829816
000070 4b 93 ed 3d ef d0 2c 3e 11 86 06 3e a9 73 ee 3d
       0.116003595 0.16876577 0.1313708 0.11643154

network.6.weight f4 [1, 32]
000000 ba 55 3e be e3 d9 dc 3d 4b 37 35 3e 0d f4 29 be
       -0.1858739 0.10783746 0.17696874 -0.16597004
000010 18 85 c1 bd 37 6e 2f be 27 67 20 3c 1a d7 22 3e
       -0.09449214 -0.17131887 0.009790218 0.15902367
000020 c9 bb e4 bd 21 d8 42 3e 72 a3 13 be 44 0f 31 be
       -0.1116863 0.19027759 -0.14417818 -0.1729098
000030 4e 95 7e bd ea f0 d5 bd 0a e8 5d 3e a3 2c a0 bd
       -0.062154107 -0.10446341 0.21670547 -0.07821014
000040 22 34 36 3e 69 8b 2c 3e 6c 7a 1a be 0f ea 06 be
       0.17793325 0.16850056 -0.15085763 -0.13175224
000050 4c c0 41 be d4 89 93 3e 40 61 72 3e bf 73 0b 3d
       -0.18921012 0.28816092 0.2366991 0.03404593
000060 6c da 67 3e 72 77 89 3e f8 6d 75 be 20 2a 4a 3e
       0.22641915 0.26848942 -0.23967731 0.19742632
000070 9a 56 36 be 71 1f 67 be 61 18 67 be be 61 d9 bd
       -0.17806473 -0.22570588 -0.22567894 -0.10614346
